alf_rid.tflite (tflite, 63544 bytes, 18 tensors)

tfl.pseudo_qconst1 i1 [1, 2368] scale=0.0036009992 zero_point=0
000000 06 03 de 23 05 f4 e4 e7 d9 dc e4 d4 c8 1a f7 01
       0.021605995 0.010802997 -0.122433975 0.12603498 0.018004997 -0.04321199 -0.10082798 -0.09002498 -0.14043897 -0.12963597 -0.10082798 -0.15844397 -0.20165595 0.09362598 -0.032408994 0.0036009992
000010 f6 f7 b9 cd 18 bb fa 0c e3 ec 03 f4 e6 15 f9 11
       -0.036009993 -0.032408994 -0.25567093 -0.18365096 0.08642398 -0.24846895 -0.021605995 0.04321199 -0.10442898 -0.07201999 0.010802997 -0.04321199 -0.09362598 0.07562099 -0.025206994 0.061216988
000020 0e 02 11 d5 04 f2 02 11 cd fb cd ff e1 f5 06 ec
       0.05041399 0.0072019985 0.061216988 -0.15484297 0.014403997 -0.05041399 0.0072019985 0.061216988 -0.18365096 -0.018004997 -0.18365096 -0.0036009992 -0.111630976 -0.039610993 0.021605995 -0.07201999
000030 e6 f1 cb ed f8 ec d6 bc f1 27 f8 f1 00 e8 ed c4
       -0.09362598 -0.05401499 -0.19085295 -0.06841899 -0.028807994 -0.07201999 -0.15124197 -0.24486795 -0.05401499 0.14043897 -0.028807994 -0.05401499 0.0 -0.08642398 -0.06841899 -0.21605995
000040 07 0f e3 0f 14 03 f2 ef e1 f9 eb e4 06 17 09 f0
       0.025206994 0.05401499 -0.10442898 0.05401499 0.07201999 0.010802997 -0.05041399 -0.061216988 -0.111630976 -0.025206994 -0.07562099 -0.10082798 0.021605995 0.082822986 0.032408994 -0.057615988
000050 04 00 e8 dd 15 e5 f6 fe df e7 f9 f5 f6 19 11 11
       0.014403997 0.0 -0.08642398 -0.12603498 0.07562099 -0.09722698 -0.036009993 -0.0072019985 -0.118832976 -0.09002498 -0.025206994 -0.039610993 -0.036009993 0.09002498 0.061216988 0.061216988
000060 f2 ff 03 04 f6 f3 17 09 d3 f5 e8 08 dd 00 0a f1
       -0.05041399 -0.0036009992 0.010802997 0.014403997 -0.036009993 -0.04681299 0.082822986 0.032408994 -0.16204497 -0.039610993 -0.08642398 0.028807994 -0.12603498 0.0 0.036009993 -0.05401499
000070 ee fc dc 06 ff fb d7 dc f6 27 fb 07 06 cc 00 cc
       -0.06481799 -0.014403997 -0.12963597 0.021605995 -0.0036009992 -0.018004997 -0.14764097 -0.12963597 -0.036009993 0.14043897 -0.018004997 0.025206994 0.021605995 -0.18725196 0.0 -0.18725196
000080 fd 06 fa 0a fe 02 f5 07 f4 f3 e9 fe fc 0a 0c f6
       -0.010802997 0.021605995 -0.021605995 0.036009993 -0.0072019985 0.0072019985 -0.039610993 0.025206994 -0.04321199 -0.04681299 -0.082822986 -0.0072019985 -0.014403997 0.036009993 0.04321199 -0.036009993
000090 16 fa f1 e0 1a f3 f7 0d f1 f4 f7 fc f9 07 16 05
       0.079221986 -0.021605995 -0.05401499 -0.115231976 0.09362598 -0.04681299 -0.032408994 0.04681299 -0.05401499 -0.04321199 -0.032408994 -0.014403997 -0.025206994 0.025206994 0.079221986 0.018004997
0000a0 ee f3 12 07 f6 f7 fd ff df ef 00 f8 fc f6 17 fc
       -0.06481799 -0.04681299 0.06481799 0.025206994 -0.036009993 -0.032408994 -0.010802997 -0.0036009992 -0.118832976 -0.061216988 0.0 -0.028807994 -0.014403997 -0.036009993 0.082822986 -0.014403997
0000b0 ef f0 06 04 05 ff dd ef fb 24 0f 03 fe e9 f8 ef
       -0.061216988 -0.057615988 0.021605995 0.014403997 0.018004997 -0.0036009992 -0.12603498 -0.061216988 -0.018004997 0.12963597 0.05401499 0.010802997 -0.0072019985 -0.082822986 -0.028807994 -0.061216988
0000c0 f4 13 ee f8 10 f8 0f 0d f4 0b f6 fa 08 0a 19 f0
       -0.04321199 0.06841899 -0.06481799 -0.028807994 0.057615988 -0.028807994 0.05401499 0.04681299 -0.04321199 0.039610993 -0.036009993 -0.021605995 0.028807994 0.036009993 0.09002498 -0.057615988
0000d0 13 eb f6 f6 18 f5 0a 07 f3 01 0e fe f4 0d 06 04
       0.06841899 -0.07562099 -0.036009993 -0.036009993 0.08642398 -0.039610993 0.036009993 0.025206994 -0.04681299 0.0036009992 0.05041399 -0.0072019985 -0.04321199 0.04681299 0.021605995 0.014403997
0000e0 fc 03 15 0e 00 f8 09 f7 ee e7 f9 06 dc e7 0c 02
       -0.014403997 0.010802997 0.07562099 0.05041399 0.0 -0.028807994 0.032408994 -0.032408994 -0.06481799 -0.09002498 -0.025206994 0.021605995 -0.12963597 -0.09002498 0.04321199 0.0072019985
0000f0 02 fa fc 17 12 ee e4 fc 0c 1e 07 fe f5 e3 0a f7
       0.0072019985 -0.021605995 -0.014403997 0.082822986 0.06481799 -0.06481799 -0.10082798 -0.014403997 0.04321199 0.10802998 0.025206994 -0.0072019985 -0.039610993 -0.10442898 0.036009993 -0.032408994

tfl.pseudo_qconst3 i1 [64, 1, 1, 64]
000000 3b b6 2a f0 d6 22 24 18 55 49 21 25 90 3f 3b 0b
       59 -74 42 -16 -42 34 36 24 85 73 33 37 -112 63 59 11
000010 f4 f5 1d 11 09 52 17 bb 23 2e 02 39 ce c2 2c fe
       -12 -11 29 17 9 82 23 -69 35 46 2 57 -50 -62 44 -2
000020 02 d1 c8 68 18 ef bd 1a ae c8 e6 5a 53 e1 3c 15
       2 -47 -56 104 24 -17 -67 26 -82 -56 -26 90 83 -31 60 21
000030 26 dd 08 16 20 68 20 3a 50 7f 01 e5 40 2b 20 07
       38 -35 8 22 32 104 32 58 80 127 1 -27 64 43 32 7
000040 0f f9 13 46 e9 de e0 fe 12 db d9 ea 81 38 36 1f
       15 -7 19 70 -23 -34 -32 -2 18 -37 -39 -22 -127 56 54 31
000050 0a 08 0d c6 21 ce bc e0 3f 16 d5 0a 09 12 13 f6
       10 8 13 -58 33 -50 -68 -32 63 22 -43 10 9 18 19 -10
000060 08 ea c2 26 e8 de f6 f2 bf 11 32 08 17 bd ff 3d
       8 -22 -62 38 -24 -34 -10 -14 -65 17 50 8 23 -67 -1 61
000070 12 20 20 39 50 de 21 0c e0 57 1a d0 50 cb 0c b6
       18 32 32 57 80 -34 33 12 -32 87 26 -48 80 -53 12 -74
000080 a8 f7 dd ec 97 a0 f5 be f4 1a 18 f0 26 b4 2f d2
       -88 -9 -35 -20 -105 -96 -11 -66 -12 26 24 -16 38 -76 47 -46
000090 cd 19 ec fc 22 36 f0 22 36 5a 35 8f f1 2a d5 e9
       -51 25 -20 -4 34 54 -16 34 54 90 53 -113 -15 42 -43 -23
0000a0 dc c3 c3 f2 f5 fe ba d9 d8 7f 03 18 1d 20 ee e5
       -36 -61 -61 -14 -11 -2 -70 -39 -40 127 3 24 29 32 -18 -27
0000b0 fd f3 f1 ab f1 4e e7 e9 fa 03 cc c1 03 03 d0 df
       -3 -13 -15 -85 -15 78 -25 -23 -6 3 -52 -63 3 3 -48 -33
0000c0 0b fd b8 a2 04 eb cf b0 27 09 7f 2d fc 0f ea 4d
       11 -3 -72 -94 4 -21 -49 -80 39 9 127 45 -4 15 -22 77
0000d0 05 15 38 1f 22 2b 67 9e 26 ea cf f0 1e 20 45 b5
       5 21 56 31 34 43 103 -98 38 -22 -49 -16 30 32 69 -75
0000e0 be 9f 70 bf 1d 1f a4 ad c9 19 26 3e eb c2 12 0a
       -66 -97 112 -65 29 31 -92 -83 -55 25 38 62 -21 -62 18 10
0000f0 0b 1c 10 bf ed 0d d3 36 b7 19 02 ee fe aa 31 33
       11 28 16 -65 -19 13 -45 54 -73 25 2 -18 -2 -86 49 51

tfl.pseudo_qconst5 i1 [1, 23, 1, 64]
000000 81 7f 7f 24 f1 23 69 2c 13 0c 0d eb 5e 81 23 85
       -127 127 127 36 -15 35 105 44 19 12 13 -21 94 -127 35 -123
000010 1d c3 ef 54 ba 81 fd ff b6 10 40 6b b2 be 81 ec
       29 -61 -17 84 -70 -127 -3 -1 -74 16 64 107 -78 -66 -127 -20
000020 72 1d 18 be 4f 14 7c 21 1b 04 eb fb 81 e1 26 32
       114 29 24 -66 79 20 124 33 27 4 -21 -5 -127 -31 38 50
000030 ff ec 8e 05 c0 cb 2f 5d c5 c4 81 c4 81 7f 78 e1
       -1 -20 -114 5 -64 -53 47 93 -59 -60 -127 -60 -127 127 120 -31
000040 96 b2 6b 04 28 25 2d 55 42 32 26 07 7d a9 25 96
       -106 -78 107 4 40 37 45 85 66 50 38 7 125 -87 37 -106
000050 39 ac ed 5b 54 96 02 2d 81 f5 05 74 c9 f2 a1 dd
       57 -84 -19 91 84 -106 2 45 -127 -11 5 116 -55 -14 -95 -35
000060 67 12 24 c0 27 4d 63 48 0e f2 cd 2b c3 ea c7 b8
       103 18 36 -64 39 77 99 72 14 -14 -51 43 -61 -22 -57 -72
000070 3f ed bd 13 85 bf 18 6b e4 e5 98 bf b4 6c 7f ee
       63 -19 -67 19 -123 -65 24 107 -28 -27 -104 -65 -76 108 127 -18
000080 96 b8 37 fc 0a cd 7f 76 e4 3b 13 00 60 b5 0c be
       -106 -72 55 -4 10 -51 127 118 -28 59 19 0 96 -75 12 -66
000090 7f 81 23 24 13 90 e6 fa 96 15 eb 5e bc ff a4 9b
       127 -127 35 36 19 -112 -26 -6 -106 21 -21 94 -68 -1 -92 -101
0000a0 76 3f 0c b4 40 07 3c 56 11 e2 e5 56 aa 22 24 bc
       118 63 12 -76 64 7 60 86 17 -30 -27 86 -86 34 36 -68
0000b0 1b 10 bf fc 97 df 0c 7f 15 df df a9 bc 36 66 02
       27 16 -65 -4 -105 -33 12 127 21 -33 -33 -87 -68 54 102 2
0000c0 aa bb 28 06 fe fa ec 7f 0b 1a fd 0a 7f a7 03 57
       -86 -69 40 6 -2 -6 -20 127 11 26 -3 10 127 -89 3 87
0000d0 43 d4 11 3a 31 89 eb db f7 04 d1 31 d8 f8 c0 88
       67 -44 17 58 49 -119 -21 -37 -9 4 -47 49 -40 -8 -64 -120
0000e0 6e 52 18 f0 37 0c 7f 2b 0c f5 e3 4a c7 10 54 21
       110 82 24 -16 55 12 127 43 12 -11 -29 74 -57 16 84 33
0000f0 7f 20 85 01 9a 01 04 69 29 d0 ee fd c8 2f 63 fa
       127 32 -123 1 -102 1 4 105 41 -48 -18 -3 -56 47 99 -6

tfl.pseudo_qconst7 i1 [64, 1, 1, 64]
000000 15 b6 38 df 40 ca f6 2d 33 0a 06 c4 e1 24 2e 12
       21 -74 56 -33 64 -54 -10 45 51 10 6 -60 -31 36 46 18
000010 10 00 27 00 40 07 0d 11 10 0c 05 15 e2 fb d3 2c
       16 0 39 0 64 7 13 17 16 12 5 21 -30 -5 -45 44
000020 f4 e1 11 fd 08 e3 11 ba 2d c5 81 57 f4 e8 22 0f
       -12 -31 17 -3 8 -29 17 -70 45 -59 -127 87 -12 -24 34 15
000030 01 36 e6 22 10 08 08 ef dc fd ff 10 47 10 8a 05
       1 54 -26 34 16 8 8 -17 -36 -3 -1 16 71 16 -118 5
000040 10 f0 19 d7 ef 19 c0 20 0b 4b 3f da ce 41 ba 15
       16 -16 25 -41 -17 25 -64 32 11 75 63 -38 -50 65 -70 21
000050 21 f0 ec 00 ed 00 f7 e4 d8 05 03 1c a9 12 04 11
       33 -16 -20 0 -19 0 -9 -28 -40 5 3 28 -87 18 4 17
000060 81 b2 21 e0 e4 ed fc 14 f6 06 fe 3f f6 e6 5d d8
       -127 -78 33 -32 -28 -19 -4 20 -10 6 -2 63 -10 -26 93 -40
000070 f3 ee e5 f1 20 d5 25 fa c2 19 33 ec fe 30 dd 14
       -13 -18 -27 -15 32 -43 37 -6 -62 25 51 -20 -2 48 -35 20
000080 ce 0f 0a 14 e8 a7 2b c4 1a d8 da 45 c1 63 15 45
       -50 15 10 20 -24 -89 43 -60 26 -40 -38 69 -63 99 21 69
000090 e9 d2 cd 45 15 04 bf 11 d7 1c e1 b3 ff a0 49 3a
       -23 -46 -51 69 21 4 -65 17 -41 28 -31 -77 -1 -96 73 58
0000a0 f1 ac 18 81 d1 58 0f c7 18 ff 0c f4 0e 16 da 09
       -15 -84 24 -127 -47 88 15 -57 24 -1 12 -12 14 22 -38 9
0000b0 d0 bf d9 bb be 36 40 f3 28 e4 26 31 e1 f7 4c 04
       -48 -65 -39 -69 -66 54 64 -13 40 -28 38 49 -31 -9 76 4
0000c0 b7 2b 09 f7 dd 81 ce e7 23 f6 a6 d2 ca 5c 00 f1
       -73 43 9 -9 -35 -127 -50 -25 35 -10 -90 -46 -54 92 0 -15
0000d0 0b 62 fd 29 f2 5e 06 03 d7 0c df a4 d8 ba 02 5a
       11 98 -3 41 -14 94 6 3 -41 12 -33 -92 -40 -70 2 90
0000e0 16 ef e7 b3 de 35 cf c1 5c 03 e3 11 51 de ea db
       22 -17 -25 -77 -34 53 -49 -63 92 3 -29 17 81 -34 -22 -37
0000f0 d6 cd 1c 1f f8 c4 33 e7 e9 f4 de 29 f1 ee eb df
       -42 -51 28 31 -8 -60 51 -25 -23 -12 -34 41 -15 -18 -21 -33

tfl.pseudo_qconst9 i1 [1, 15, 1, 32]
000000 30 c1 77 7f 2a 3a 1d 81 41 5a e8 5a e1 26 38 f4
       48 -63 119 127 42 58 29 -127 65 90 -24 90 -31 38 56 -12
000010 7c ef 55 7f 25 3d f8 cd 29 d4 e0 f7 7f 2a 52 63
       124 -17 85 127 37 61 -8 -51 41 -44 -32 -9 127 42 82 99
000020 b9 a6 2e 63 5a 1f 06 95 09 67 8e 2b 11 ba 7f 12
       -71 -90 46 99 90 31 6 -107 9 103 -114 43 17 -70 127 18
000030 19 c9 66 4e 25 07 58 20 f1 d4 0a c2 67 0f 7f 1f
       25 -55 102 78 37 7 88 32 -15 -44 10 -62 103 15 127 31
000040 ec ab 07 70 e4 f8 dd 9a 13 50 cd 3d ed d7 67 b0
       -20 -85 7 112 -28 -8 -35 -102 19 80 -51 61 -19 -41 103 -80
000050 36 45 54 64 4c 36 5b 96 db a3 06 41 4d 26 7a 51
       54 69 84 100 76 54 91 -106 -37 -93 6 65 77 38 122 81
000060 0e a5 0a 44 7f 41 f1 a6 1c 54 81 24 f8 47 34 aa
       14 -91 10 68 127 65 -15 -90 28 84 -127 36 -8 71 52 -86
000070 30 59 63 33 40 b7 36 94 f5 ce bd d5 34 e1 4a 5e
       48 89 99 51 64 -73 54 -108 -11 -50 -67 -43 52 -31 74 94
000080 0c 81 f1 5e 1e 1c dd b2 2e 31 ce e3 1e 36 26 5e
       12 -127 -15 94 30 28 -35 -78 46 49 -50 -29 30 54 38 94
000090 ee 71 41 fb 0e e3 3f ec 3a e3 a9 01 1b f6 25 f7
       -18 113 65 -5 14 -29 63 -20 58 -29 -87 1 27 -10 37 -9
0000a0 f2 ae fc 73 8d 26 c4 dd 11 6f b9 a8 f5 b6 43 5d
       -14 -82 -4 115 -115 38 -60 -35 17 111 -71 -88 -11 -74 67 93
0000b0 e2 6a 11 2c b8 f4 07 55 fa 21 fd 2a 1b e3 0f 7f
       -30 106 17 44 -72 -12 7 85 -6 33 -3 42 27 -29 15 127
0000c0 19 c9 fd 4c dc 4e 9d e3 ef 74 e8 81 e7 09 24 15
       25 -55 -3 76 -36 78 -99 -29 -17 116 -24 -127 -25 9 36 21
0000d0 32 3d 16 0e ee 81 c5 3d 51 08 a9 1d 3e 05 10 66
       50 61 22 14 -18 -127 -59 61 81 8 -87 29 62 5 16 102
0000e0 a3 f7 a8 44 fd f8 df de fe fa d2 d4 e6 dd 20 30
       -93 -9 -88 68 -3 -8 -33 -34 -2 -6 -46 -44 -26 -35 32 48
0000f0 fd 7f dc 05 b0 e9 90 1c 4c 14 dc e5 13 28 15 4b
       -3 127 -36 5 -80 -23 -112 28 76 20 -36 -27 19 40 21 75

tfl.pseudo_qconst11 i1 [1, 9, 1, 32]
000000 7f ab 7f 44 81 c4 02 8d 7f ee f4 81 d3 a0 10 f7
       127 -85 127 68 -127 -60 2 -115 127 -18 -12 -127 -45 -96 16 -9
000010 7f 59 6c 19 e5 ce 81 81 e8 a4 7f ea 81 ea 81 71
       127 89 108 25 -27 -50 -127 -127 -24 -92 127 -22 -127 -22 -127 113
000020 4f 9c 2f 08 af 05 31 81 63 be 23 a9 f5 ac 81 fd
       79 -100 47 8 -81 5 49 -127 99 -66 35 -87 -11 -84 -127 -3
000030 5e 43 9e bf b5 ee d2 b3 0d c8 79 e4 b9 1f e8 fd
       94 67 -98 -65 -75 -18 -46 -77 13 -56 121 -28 -71 31 -24 -3
000040 48 cb 75 81 01 f3 65 a7 7e c5 30 25 d9 de 82 fa
       72 -53 117 -127 1 -13 101 -89 126 -59 48 37 -39 -34 -126 -6
000050 46 0d 3f 34 b4 c8 c2 c3 9e 38 ee ba ab 44 31 24
       70 13 63 52 -76 -56 -62 -61 -98 56 -18 -70 -85 68 49 36
000060 b5 f0 17 d8 42 1e f0 35 77 d8 b3 76 bc a4 21 73
       -75 -16 23 -40 66 30 -16 53 119 -40 -77 118 -68 -92 33 115
000070 0e 00 69 0e a9 0e fd fd 10 01 3c da f0 25 9f 29
       14 0 105 14 -87 14 -3 -3 16 1 60 -38 -16 37 -97 41
000080 b3 f5 cb d2 27 25 33 0e 01 02 c0 18 0e 00 ff 22
       -77 -11 -53 -46 39 37 51 14 1 2 -64 24 14 0 -1 34
000090 25 17 44 14 26 f6 d8 c1 01 4b ac 32 3b 3e c7 99
       37 23 68 20 38 -10 -40 -63 1 75 -84 50 59 62 -57 -103
0000a0 b1 34 2e 64 f8 1b c6 e5 61 2c 2e 6d d0 d5 22 ba
       -79 52 46 100 -8 27 -58 -27 97 44 46 109 -48 -43 34 -70
0000b0 44 41 86 c5 63 c3 32 3b e1 81 c5 c5 4e 1c a7 81
       68 65 -122 -59 99 -61 50 59 -31 -127 -59 -59 78 28 -89 -127
0000c0 30 3c ef 32 3a 7f 7f 65 e9 ea 03 42 5b de 1b 13
       48 60 -17 50 58 127 127 101 -23 -22 3 66 91 -34 27 19
0000d0 40 6b ba 81 2c a4 59 fc 4d 4d 22 df 3a 6e 8c d6
       64 107 -70 -127 44 -92 89 -4 77 77 34 -33 58 110 -116 -42
0000e0 5a 6d 6f 2d 39 7f 52 e7 34 6b 3b 3e 45 9b b7 81
       90 109 111 45 57 127 82 -25 52 107 59 62 69 -101 -73 -127
0000f0 5e 7f 81 97 7f c6 d3 eb 63 66 16 a4 67 5f 03 8a
       94 127 -127 -105 127 -58 -45 -21 99 102 22 -92 103 95 3 -118

tfl.pseudo_qconst13 i1 [64, 1, 1, 64]
000000 0d ec 15 16 bd 07 7f c9 ff b9 31 0e d0 f0 11 49
       13 -20 21 22 -67 7 127 -55 -1 -71 49 14 -48 -16 17 73
000010 31 dc 0b e7 cb 19 01 f8 e4 f6 fc ed 17 c0 d3 b9
       49 -36 11 -25 -53 25 1 -8 -28 -10 -4 -19 23 -64 -45 -71
000020 b4 4e 1f 04 0f 31 f0 05 bc 00 c1 b4 0e ce 0e ef
       -76 78 31 4 15 49 -16 5 -68 0 -63 -76 14 -50 14 -17
000030 f7 2b e6 29 4e f8 e0 bb 4b 60 fc 04 d9 db 44 49
       -9 43 -26 41 78 -8 -32 -69 75 96 -4 4 -39 -37 68 73
000040 dd 27 45 ef bc 25 e8 e8 23 04 15 10 9f 38 2b c1
       -35 39 69 -17 -68 37 -24 -24 35 4 21 16 -97 56 43 -63
000050 16 18 c8 f9 1e cc 02 fc a5 e2 e8 f1 e0 81 c8 dd
       22 24 -56 -7 30 -52 2 -4 -91 -30 -24 -15 -32 -127 -56 -35
000060 fa e2 2a ca 44 2d 2f 3a d9 0e 27 f3 5b 11 12 d5
       -6 -30 42 -54 68 45 47 58 -39 14 39 -13 91 17 18 -43
000070 1c 0a 15 f8 29 36 e7 f5 05 c5 cf cd 43 de d0 f9
       28 10 21 -8 41 54 -25 -11 5 -59 -49 -51 67 -34 -48 -7
000080 c0 7f f5 e1 d8 7f 39 c0 cd 14 e1 39 a1 fb d5 d7
       -64 127 -11 -31 -40 127 57 -64 -51 20 -31 57 -95 -5 -43 -41
000090 44 13 f5 c1 dd 03 ed 0c 09 44 0b 47 1c 3e c1 06
       68 19 -11 -63 -35 3 -19 12 9 68 11 71 28 62 -63 6
0000a0 dd d9 dd de 20 36 01 53 ea 1b 36 35 33 ee 42 cc
       -35 -39 -35 -34 32 54 1 83 -22 27 54 53 51 -18 66 -52
0000b0 dc 0f 48 d5 f6 f5 69 2d 43 b5 02 14 31 c2 b8 a6
       -36 15 72 -43 -10 -11 105 45 67 -75 2 20 49 -62 -72 -90
0000c0 b3 7f 05 fb 18 e5 e9 e4 d6 2e f7 29 32 ed b1 a6
       -77 127 5 -5 24 -27 -23 -28 -42 46 -9 41 50 -19 -79 -90
0000d0 16 22 13 f5 07 d0 15 a1 0c 29 03 06 27 16 ec 40
       22 34 19 -11 7 -48 21 -95 12 41 3 6 39 22 -20 64
0000e0 ca f3 ea 00 de 08 44 04 d1 1a dc f7 21 20 f4 2b
       -54 -13 -22 0 -34 8 68 4 -47 26 -36 -9 33 32 -12 43
0000f0 ef bd 1b 04 48 2a fc ec fa e7 e6 02 e1 d3 e6 2e
       -17 -67 27 4 72 42 -4 -20 -6 -25 -26 2 -31 -45 -26 46

tfl.pseudo_qconst15 i1 [1, 11, 1, 32]
000000 fb d8 89 ab fd 29 1f 04 33 64 ed e6 8e bd 7f 48
       -5 -40 -119 -85 -3 41 31 4 51 100 -19 -26 -114 -67 127 72
000010 f3 37 cf 3e 7f 51 44 c3 cd 0e dc 43 7f 9b 05 81
       -13 55 -49 62 127 81 68 -61 -51 14 -36 67 127 -101 5 -127
000020 cc 02 1b ab 48 d9 19 ee 2a c6 65 e6 95 81 57 7f
       -52 2 27 -85 72 -39 25 -18 42 -58 101 -26 -107 -127 87 127
000030 ff 4c 5d 2b 67 18 66 2b d9 3d c3 7f 75 81 ed e5
       -1 76 93 43 103 24 102 43 -39 61 -61 127 117 -127 -19 -27
000040 e3 ed 15 04 3f 25 f4 2b f6 1f 32 21 81 bd 2f 4e
       -29 -19 21 4 63 37 -12 43 -10 31 50 33 -127 -67 47 78
000050 7f 20 45 19 1f 55 3d 30 ee 04 81 46 10 0b 0f d5
       127 32 69 25 31 85 61 48 -18 4 -127 70 16 11 15 -43
000060 cd ec 3d 08 7f 2d ca 12 6e bd 0f 7f a8 19 f5 19
       -51 -20 61 8 127 45 -54 18 110 -67 15 127 -88 25 -11 25
000070 5c b9 85 28 26 7f cd ef 81 d9 b8 6c 61 84 ea 00
       92 -71 -123 40 38 127 -51 -17 -127 -39 -72 108 97 -124 -22 0
000080 da c7 9f 4d 4c 63 e3 11 7f 90 68 fb e8 d8 d4 1d
       -38 -57 -97 77 76 99 -29 17 127 -112 104 -5 -24 -40 -44 29
000090 36 81 30 54 01 53 c2 ae e6 c7 ba 65 4a 03 02 23
       54 -127 48 84 1 83 -62 -82 -26 -57 -70 101 74 3 2 35
0000a0 e9 dd 3f e6 74 48 f0 16 6d 00 55 12 e2 48 d8 cc
       -23 -35 63 -26 116 72 -16 22 109 0 85 18 -30 72 -40 -52
0000b0 47 e5 8d 34 13 33 97 19 9b 05 c1 5a df e9 e5 e8
       71 -27 -115 52 19 51 -105 25 -101 5 -63 90 -33 -23 -27 -24
0000c0 e3 fa 2b ae ef 48 c7 e7 5b 7f d1 4e 2f 3d f4 46
       -29 -6 43 -82 -17 72 -57 -25 91 127 -47 78 47 61 -12 70
0000d0 b1 a5 98 0a c7 11 99 d7 c3 15 14 1d 82 a5 4c 00
       -79 -91 -104 10 -57 17 -103 -41 -61 21 20 29 -126 -91 76 0
0000e0 14 7f 81 e7 0b 33 1c 0f ea e4 f0 ca 11 58 cf f3
       20 127 -127 -25 11 51 28 15 -22 -28 -16 -54 17 88 -49 -13
0000f0 cf d7 7f f0 05 39 8f de b3 11 07 9c f1 c2 0a e0
       -49 -41 127 -16 5 57 -113 -34 -77 17 7 -100 -15 -62 10 -32

tfl.pseudo_qconst17 i1 [1, 7, 1, 32]
000000 9c 7f e7 7f dd 43 fd ec 1a 7f 7e 70 1d 7f da 8e
       -100 127 -25 127 -35 67 -3 -20 26 127 126 112 29 127 -38 -114
000010 de 2a 0c 05 7f f8 7f a4 0f 45 8c 7f c8 41 5b 4f
       -34 42 12 5 127 -8 127 -92 15 69 -116 127 -56 65 91 79
000020 c5 4e 81 d7 3a 1b c0 4e a8 7b 7f 7f 17 38 cb e2
       -59 78 -127 -41 58 27 -64 78 -88 123 127 127 23 56 -53 -30
000030 cb 09 60 08 fa c7 68 fc 26 10 9f 40 1e cb 2b f7
       -53 9 96 8 -6 -57 104 -4 38 16 -97 64 30 -53 43 -9
000040 43 e1 c9 52 1f 28 e4 7f 92 04 5f d0 1d ea e8 3f
       67 -31 -55 82 31 40 -28 127 -110 4 95 -48 29 -22 -24 63
000050 e3 bc 75 7f 43 7f 04 e5 4b 0c 51 05 60 0d 61 d7
       -29 -68 117 127 67 127 4 -27 75 12 81 5 96 13 97 -41
000060 74 b2 e1 31 31 11 ff 5b c1 0c 21 84 07 1f 55 0c
       116 -78 -31 49 49 17 -1 91 -63 12 33 -124 7 31 85 12
000070 a1 96 4d 70 58 e5 cf e4 db a7 7f dc 27 e5 7f 21
       -95 -106 77 112 88 -27 -49 -28 -37 -89 127 -36 39 -27 127 33
000080 7f cb 8e ed cd dd 17 34 a2 36 2a 3a 4a e1 7f 02
       127 -53 -114 -19 -51 -35 23 52 -94 54 42 58 74 -31 127 2
000090 81 be a5 ef dc f5 96 69 7f f5 29 10 50 be fc ab
       -127 -66 -91 -17 -36 -11 -106 105 127 -11 41 16 80 -66 -4 -85
0000a0 5e cb ba b9 01 05 44 39 81 42 9f b8 0c a5 f5 81
       94 -53 -70 -71 1 5 68 57 -127 66 -97 -72 12 -91 -11 -127
0000b0 91 44 81 48 fc 3a 26 5c 0a 15 dd 24 7f 83 fe 81
       -111 68 -127 72 -4 58 38 92 10 21 -35 36 127 -125 -2 -127
0000c0 c3 41 d6 5d 7f 81 7f cb 95 33 91 5d 7f d3 63 d8
       -61 65 -42 93 127 -127 127 -53 -107 51 -111 93 127 -45 99 -40
0000d0 a0 81 a7 75 4a 1a d9 7f 4f 7f e6 16 15 81 fb fe
       -96 -127 -89 117 74 26 -39 127 79 127 -26 22 21 -127 -5 -2

tfl.pseudo_qconst19 i1 [64, 1, 1, 32]
000000 06 b5 7e e0 20 0a 21 2f 54 e7 38 0c 45 1b 2b ec
       6 -75 126 -32 32 10 33 47 84 -25 56 12 69 27 43 -20
000010 34 a9 43 27 3c eb 5a 73 2a 7f 03 05 e8 db 46 1b
       52 -87 67 39 60 -21 90 115 42 127 3 5 -24 -37 70 27
000020 26 15 25 0f e3 d1 fa e7 02 3f 41 f4 74 7f 7c 1e
       38 21 37 15 -29 -47 -6 -25 2 63 65 -12 116 127 124 30
000030 e6 ee f1 61 f5 19 e0 a0 fb 0d 33 36 36 fd 2a 2c
       -26 -18 -15 97 -11 25 -32 -96 -5 13 51 54 54 -3 42 44
000040 07 f1 16 20 00 17 27 17 49 bd f3 3e eb 14 c9 f9
       7 -15 22 32 0 23 39 23 73 -67 -13 62 -21 20 -55 -7
000050 3e 13 e7 2c 7f 14 f5 e9 f2 e1 17 e4 d6 02 c5 b2
       62 19 -25 44 127 20 -11 -23 -14 -31 23 -28 -42 2 -59 -78
000060 f2 25 00 c8 2e 19 5a 19 c5 20 30 de a0 f9 81 ce
       -14 37 0 -56 46 25 90 25 -59 32 48 -34 -96 -7 -127 -50
000070 36 58 ea 0b 20 aa 5a fe 3f 8a 48 12 25 e8 dc e9
       54 88 -22 11 32 -86 90 -2 63 -118 72 18 37 -24 -36 -23
000080 02 f1 18 a7 52 1c 05 18 de d9 39 f6 81 ff 07 ba
       2 -15 24 -89 82 28 5 24 -34 -39 57 -10 -127 -1 7 -70
000090 26 29 fc e2 e9 1e 01 1d cb b8 4a 4e c8 ee df d9
       38 41 -4 -30 -23 30 1 29 -53 -72 74 78 -56 -18 -33 -39
0000a0 d6 fa 7f 2f 7f 0c 41 1a dc 30 d3 ed 3c 1f 3d 48
       -42 -6 127 47 127 12 65 26 -36 48 -45 -19 60 31 61 72
0000b0 d2 b7 ac b0 3c 06 b8 50 14 71 23 ce 1a cf 13 b9
       -46 -73 -84 -80 60 6 -72 80 20 113 35 -50 26 -49 19 -71
0000c0 d2 53 e6 e9 1a 2e 50 05 b9 e8 e6 0c 81 06 31 f6
       -46 83 -26 -23 26 46 80 5 -71 -24 -26 12 -127 6 49 -10
0000d0 08 74 07 d7 42 39 43 32 31 c6 ef 23 df c0 03 d6
       8 116 7 -41 66 57 67 50 49 -58 -17 35 -33 -64 3 -42
0000e0 19 00 31 2f ec 97 f8 69 3b 8e 3e 2d 3b 7f ec 10
       25 0 49 47 -20 -105 -8 105 59 -114 62 45 59 127 -20 16
0000f0 1d 22 23 ba 6a de 51 21 41 0c fe c3 fd fa f4 9e
       29 34 35 -70 106 -34 81 33 65 12 -2 -61 -3 -6 -12 -98

tfl.pseudo_qconst21 i1 [1, 5, 1, 32]
000000 43 31 28 8e b3 e4 ea b4 b0 b2 96 c4 19 7f 36 7f
       67 49 40 -114 -77 -28 -22 -76 -80 -78 -106 -60 25 127 54 127
000010 57 e0 03 08 5a 4d cc 93 7f e2 1b 7f 81 fc 0c 67
       87 -32 3 8 90 77 -52 -109 127 -30 27 127 -127 -4 12 103
000020 7f 7f 47 53 27 81 e1 fb 81 01 12 9c 7f 91 36 d9
       127 127 71 83 39 -127 -31 -5 -127 1 18 -100 127 -111 54 -39
000030 94 b9 81 3b 7f 7f e2 11 fd b5 4c 1d e4 81 a8 59
       -108 -71 -127 59 127 127 -30 17 -3 -75 76 29 -28 -127 -88 89
000040 55 09 7f e5 95 22 70 03 a1 e6 69 81 6b 98 e3 be
       85 9 127 -27 -107 34 112 3 -95 -26 105 -127 107 -104 -29 -66
000050 7f 22 22 3c b4 fe af d4 3f 93 d4 f4 67 39 88 4f
       127 34 34 60 -76 -2 -81 -44 63 -109 -44 -12 103 57 -120 79
000060 04 cc fb c5 81 83 7f 7f cc 62 7f 8d d9 c8 10 87
       4 -52 -5 -59 -127 -125 127 127 -52 98 127 -115 -39 -56 16 -121
000070 d3 54 8d ad 20 b8 5f 5d 57 81 81 76 60 bd 81 36
       -45 84 -115 -83 32 -72 95 93 87 -127 -127 118 96 -67 -127 54
000080 77 c7 79 7f c9 33 9f 68 cf 7f 6b cf 06 ce 81 3f
       119 -57 121 127 -55 51 -97 104 -49 127 107 -49 6 -50 -127 63
000090 9b 7f 68 81 87 ba 7f 7f 37 57 ce 7c 7f a4 a6 7f
       -101 127 104 -127 -121 -70 127 127 55 87 -50 124 127 -92 -90 127

tfl.pseudo_qconst23 i1 [32, 5, 1, 40]
000000 b2 be e0 b6 e9 03 46 f8 69 54 df 33 12 dc 23 1f
       -78 -66 -32 -74 -23 3 70 -8 105 84 -33 51 18 -36 35 31
000010 d9 b3 85 81 f0 de dd ce ac ee 10 05 18 24 eb dd
       -39 -77 -123 -127 -16 -34 -35 -50 -84 -18 16 5 24 36 -21 -35
000020 e3 20 03 c0 da 2b 23 1c ba cb e0 fd 18 0e 45 15
       -29 32 3 -64 -38 43 35 28 -70 -53 -32 -3 24 14 69 21
000030 66 2c dd f8 ea 1c 06 ed 03 12 a1 c8 bf df 02 27
       102 44 -35 -8 -22 28 6 -19 3 18 -95 -56 -65 -33 2 39
000040 cc f7 f6 14 58 09 00 de f7 e0 c5 b1 9e 14 11 d0
       -52 -9 -10 20 88 9 0 -34 -9 -32 -59 -79 -98 20 17 -48
000050 b5 c4 dd ca e3 05 08 0a 09 7c e2 f9 e4 29 3b 34
       -75 -60 -35 -54 -29 5 8 10 9 124 -30 -7 -28 41 59 52
000060 2f 1f c2 f2 16 d6 13 e2 cf 06 24 d3 31 f1 3a d3
       47 31 -62 -14 22 -42 19 -30 -49 6 36 -45 49 -15 58 -45
000070 04 f5 da e2 9f fe cc b0 dd 29 f6 f9 20 ee 21 e6
       4 -11 -38 -30 -97 -2 -52 -80 -35 41 -10 -7 32 -18 33 -26
000080 44 35 e8 db 28 d1 27 3f 19 ec b5 d8 ff ea f6 ee
       68 53 -24 -37 40 -47 39 63 25 -20 -75 -40 -1 -22 -10 -18
000090 ee df 1d 0e ff 12 0d e2 e3 c3 e8 ec 9e 3c b4 cb
       -18 -33 29 14 -1 18 13 -30 -29 -61 -24 -20 -98 60 -76 -53
0000a0 b8 bd b0 94 10 ba 22 e1 1e 37 d9 c3 1f dc 53 3e
       -72 -67 -80 -108 16 -70 34 -31 30 55 -39 -61 31 -36 83 62
0000b0 0b 03 e0 e7 00 d8 3e d3 da f4 d4 14 01 4f 0c fe
       11 3 -32 -25 0 -40 62 -45 -38 -12 -44 20 1 79 12 -2
0000c0 ba f5 f3 c2 d1 e5 04 d4 bf af d8 ff 0b 0a 40 cf
       -70 -11 -13 -62 -47 -27 4 -44 -65 -81 -40 -1 11 10 64 -49
0000d0 00 d0 01 0d 21 26 39 e0 ef ff 37 2a d8 e7 e3 13
       0 -48 1 13 33 38 57 -32 -17 -1 55 42 -40 -25 -29 19
0000e0 b8 09 16 13 c6 ca e5 b9 b0 b5 bc e7 92 b3 a5 d3
       -72 9 22 19 -58 -54 -27 -71 -80 -75 -68 -25 -110 -77 -91 -45
0000f0 95 12 2c 2f e6 b6 2a fd c5 f1 de 14 34 ff 28 cd
       -107 18 44 47 -26 -74 42 -3 -59 -15 -34 20 52 -1 40 -51

tfl.pseudo_qconst24 i1 [1, 14, 1, 64] scale=0.052293897 zero_point=-128
000000 80 80 80 80 80 80 80 80 80 80 80 80 80 80 80 80
       0.0 0.0 0.0 0.0 0.0 0.0 0.0 0.0 0.0 0.0 0.0 0.0 0.0 0.0 0.0 0.0
000010 80 80 80 80 80 80 80 80 80 80 80 80 80 80 80 80
       0.0 0.0 0.0 0.0 0.0 0.0 0.0 0.0 0.0 0.0 0.0 0.0 0.0 0.0 0.0 0.0
000020 80 80 80 80 80 80 80 80 80 80 80 80 80 80 80 80
       0.0 0.0 0.0 0.0 0.0 0.0 0.0 0.0 0.0 0.0 0.0 0.0 0.0 0.0 0.0 0.0
000030 80 80 80 80 80 80 80 80 80 80 80 80 80 80 80 80
       0.0 0.0 0.0 0.0 0.0 0.0 0.0 0.0 0.0 0.0 0.0 0.0 0.0 0.0 0.0 0.0
000040 80 80 80 80 80 80 80 80 80 80 80 80 80 80 80 80
       0.0 0.0 0.0 0.0 0.0 0.0 0.0 0.0 0.0 0.0 0.0 0.0 0.0 0.0 0.0 0.0
000050 80 80 80 80 80 80 80 80 80 80 80 80 80 80 80 80
       0.0 0.0 0.0 0.0 0.0 0.0 0.0 0.0 0.0 0.0 0.0 0.0 0.0 0.0 0.0 0.0
000060 80 80 80 80 80 80 80 80 80 80 80 80 80 80 80 80
       0.0 0.0 0.0 0.0 0.0 0.0 0.0 0.0 0.0 0.0 0.0 0.0 0.0 0.0 0.0 0.0
000070 80 80 80 80 80 80 80 80 80 80 80 80 80 80 80 80
       0.0 0.0 0.0 0.0 0.0 0.0 0.0 0.0 0.0 0.0 0.0 0.0 0.0 0.0 0.0 0.0
000080 80 80 80 80 80 80 80 80 80 80 80 80 80 80 80 80
       0.0 0.0 0.0 0.0 0.0 0.0 0.0 0.0 0.0 0.0 0.0 0.0 0.0 0.0 0.0 0.0
000090 80 80 80 80 80 80 80 80 80 80 80 80 80 80 80 80
       0.0 0.0 0.0 0.0 0.0 0.0 0.0 0.0 0.0 0.0 0.0 0.0 0.0 0.0 0.0 0.0
0000a0 80 80 80 80 80 80 80 80 80 80 80 80 80 80 80 80
       0.0 0.0 0.0 0.0 0.0 0.0 0.0 0.0 0.0 0.0 0.0 0.0 0.0 0.0 0.0 0.0
0000b0 80 80 80 80 80 80 80 80 80 80 80 80 80 80 80 80
       0.0 0.0 0.0 0.0 0.0 0.0 0.0 0.0 0.0 0.0 0.0 0.0 0.0 0.0 0.0 0.0
0000c0 80 80 80 80 80 80 80 80 80 80 80 80 80 80 80 80
       0.0 0.0 0.0 0.0 0.0 0.0 0.0 0.0 0.0 0.0 0.0 0.0 0.0 0.0 0.0 0.0
0000d0 80 80 80 80 80 80 80 80 80 80 80 80 80 80 80 80
       0.0 0.0 0.0 0.0 0.0 0.0 0.0 0.0 0.0 0.0 0.0 0.0 0.0 0.0 0.0 0.0
0000e0 80 80 80 80 80 80 80 80 80 80 80 80 80 80 80 80
       0.0 0.0 0.0 0.0 0.0 0.0 0.0 0.0 0.0 0.0 0.0 0.0 0.0 0.0 0.0 0.0
0000f0 80 80 80 80 80 80 80 80 80 80 80 80 80 80 80 80
       0.0 0.0 0.0 0.0 0.0 0.0 0.0 0.0 0.0 0.0 0.0 0.0 0.0 0.0 0.0 0.0

tfl.pseudo_qconst25 i1 [1, 10, 1, 64] scale=0.048930395 zero_point=-128
000000 80 80 80 80 80 80 80 80 80 80 80 80 80 80 80 80
       0.0 0.0 0.0 0.0 0.0 0.0 0.0 0.0 0.0 0.0 0.0 0.0 0.0 0.0 0.0 0.0
000010 80 80 80 80 80 80 80 80 80 80 80 80 80 80 80 80
       0.0 0.0 0.0 0.0 0.0 0.0 0.0 0.0 0.0 0.0 0.0 0.0 0.0 0.0 0.0 0.0
000020 80 80 80 80 80 80 80 80 80 80 80 80 80 80 80 80
       0.0 0.0 0.0 0.0 0.0 0.0 0.0 0.0 0.0 0.0 0.0 0.0 0.0 0.0 0.0 0.0
000030 80 80 80 80 80 80 80 80 80 80 80 80 80 80 80 80
       0.0 0.0 0.0 0.0 0.0 0.0 0.0 0.0 0.0 0.0 0.0 0.0 0.0 0.0 0.0 0.0
000040 80 80 80 80 80 80 80 80 80 80 80 80 80 80 80 80
       0.0 0.0 0.0 0.0 0.0 0.0 0.0 0.0 0.0 0.0 0.0 0.0 0.0 0.0 0.0 0.0
000050 80 80 80 80 80 80 80 80 80 80 80 80 80 80 80 80
       0.0 0.0 0.0 0.0 0.0 0.0 0.0 0.0 0.0 0.0 0.0 0.0 0.0 0.0 0.0 0.0
000060 80 80 80 80 80 80 80 80 80 80 80 80 80 80 80 80
       0.0 0.0 0.0 0.0 0.0 0.0 0.0 0.0 0.0 0.0 0.0 0.0 0.0 0.0 0.0 0.0
000070 80 80 80 80 80 80 80 80 80 80 80 80 80 80 80 80
       0.0 0.0 0.0 0.0 0.0 0.0 0.0 0.0 0.0 0.0 0.0 0.0 0.0 0.0 0.0 0.0
000080 80 80 80 80 80 80 80 80 80 80 80 80 80 80 80 80
       0.0 0.0 0.0 0.0 0.0 0.0 0.0 0.0 0.0 0.0 0.0 0.0 0.0 0.0 0.0 0.0
000090 80 80 80 80 80 80 80 80 80 80 80 80 80 80 80 80
       0.0 0.0 0.0 0.0 0.0 0.0 0.0 0.0 0.0 0.0 0.0 0.0 0.0 0.0 0.0 0.0
0000a0 80 80 80 80 80 80 80 80 80 80 80 80 80 80 80 80
       0.0 0.0 0.0 0.0 0.0 0.0 0.0 0.0 0.0 0.0 0.0 0.0 0.0 0.0 0.0 0.0
0000b0 80 80 80 80 80 80 80 80 80 80 80 80 80 80 80 80
       0.0 0.0 0.0 0.0 0.0 0.0 0.0 0.0 0.0 0.0 0.0 0.0 0.0 0.0 0.0 0.0
0000c0 80 80 80 80 80 80 80 80 80 80 80 80 80 80 80 80
       0.0 0.0 0.0 0.0 0.0 0.0 0.0 0.0 0.0 0.0 0.0 0.0 0.0 0.0 0.0 0.0
0000d0 80 80 80 80 80 80 80 80 80 80 80 80 80 80 80 80
       0.0 0.0 0.0 0.0 0.0 0.0 0.0 0.0 0.0 0.0 0.0 0.0 0.0 0.0 0.0 0.0
0000e0 80 80 80 80 80 80 80 80 80 80 80 80 80 80 80 80
       0.0 0.0 0.0 0.0 0.0 0.0 0.0 0.0 0.0 0.0 0.0 0.0 0.0 0.0 0.0 0.0
0000f0 80 80 80 80 80 80 80 80 80 80 80 80 80 80 80 80
       0.0 0.0 0.0 0.0 0.0 0.0 0.0 0.0 0.0 0.0 0.0 0.0 0.0 0.0 0.0 0.0

tfl.pseudo_qconst26 i1 [1, 4, 1, 32] scale=1.2020617 zero_point=-128
000000 80 80 80 80 80 80 80 80 80 80 80 80 80 80 80 80
       0.0 0.0 0.0 0.0 0.0 0.0 0.0 0.0 0.0 0.0 0.0 0.0 0.0 0.0 0.0 0.0
000010 80 80 80 80 80 80 80 80 80 80 80 80 80 80 80 80
       0.0 0.0 0.0 0.0 0.0 0.0 0.0 0.0 0.0 0.0 0.0 0.0 0.0 0.0 0.0 0.0
000020 80 80 80 80 80 80 80 80 80 80 80 80 80 80 80 80
       0.0 0.0 0.0 0.0 0.0 0.0 0.0 0.0 0.0 0.0 0.0 0.0 0.0 0.0 0.0 0.0
000030 80 80 80 80 80 80 80 80 80 80 80 80 80 80 80 80
       0.0 0.0 0.0 0.0 0.0 0.0 0.0 0.0 0.0 0.0 0.0 0.0 0.0 0.0 0.0 0.0
000040 80 80 80 80 80 80 80 80 80 80 80 80 80 80 80 80
       0.0 0.0 0.0 0.0 0.0 0.0 0.0 0.0 0.0 0.0 0.0 0.0 0.0 0.0 0.0 0.0
000050 80 80 80 80 80 80 80 80 80 80 80 80 80 80 80 80
       0.0 0.0 0.0 0.0 0.0 0.0 0.0 0.0 0.0 0.0 0.0 0.0 0.0 0.0 0.0 0.0
000060 80 80 80 80 80 80 80 80 80 80 80 80 80 80 80 80
       0.0 0.0 0.0 0.0 0.0 0.0 0.0 0.0 0.0 0.0 0.0 0.0 0.0 0.0 0.0 0.0
000070 80 80 80 80 80 80 80 80 80 80 80 80 80 80 80 80
       0.0 0.0 0.0 0.0 0.0 0.0 0.0 0.0 0.0 0.0 0.0 0.0 0.0 0.0 0.0 0.0

tfl.pseudo_qconst27 i1 [1, 3, 1, 40] scale=0.101960786 zero_point=-128
000000 80 80 80 80 80 80 80 80 80 80 80 80 80 80 80 80
       0.0 0.0 0.0 0.0 0.0 0.0 0.0 0.0 0.0 0.0 0.0 0.0 0.0 0.0 0.0 0.0
000010 80 80 80 80 80 80 80 80 80 80 80 80 80 80 80 80
       0.0 0.0 0.0 0.0 0.0 0.0 0.0 0.0 0.0 0.0 0.0 0.0 0.0 0.0 0.0 0.0
000020 80 80 80 80 80 80 80 80 80 80 80 80 80 80 80 80
       0.0 0.0 0.0 0.0 0.0 0.0 0.0 0.0 0.0 0.0 0.0 0.0 0.0 0.0 0.0 0.0
000030 80 80 80 80 80 80 80 80 80 80 80 80 80 80 80 80
       0.0 0.0 0.0 0.0 0.0 0.0 0.0 0.0 0.0 0.0 0.0 0.0 0.0 0.0 0.0 0.0
000040 80 80 80 80 80 80 80 80 80 80 80 80 80 80 80 80
       0.0 0.0 0.0 0.0 0.0 0.0 0.0 0.0 0.0 0.0 0.0 0.0 0.0 0.0 0.0 0.0
000050 80 80 80 80 80 80 80 80 80 80 80 80 80 80 80 80
       0.0 0.0 0.0 0.0 0.0 0.0 0.0 0.0 0.0 0.0 0.0 0.0 0.0 0.0 0.0 0.0
000060 80 80 80 80 80 80 80 80 80 80 80 80 80 80 80 80
       0.0 0.0 0.0 0.0 0.0 0.0 0.0 0.0 0.0 0.0 0.0 0.0 0.0 0.0 0.0 0.0
000070 80 80 80 80 80 80 80 80
       0.0 0.0 0.0 0.0 0.0 0.0 0.0 0.0

tfl.pseudo_qconst28 i1 [1, 36, 1, 64] scale=0.028465634 zero_point=-128
000000 80 80 80 80 80 80 80 80 80 80 80 80 80 80 80 80
       0.0 0.0 0.0 0.0 0.0 0.0 0.0 0.0 0.0 0.0 0.0 0.0 0.0 0.0 0.0 0.0
000010 80 80 80 80 80 80 80 80 80 80 80 80 80 80 80 80
       0.0 0.0 0.0 0.0 0.0 0.0 0.0 0.0 0.0 0.0 0.0 0.0 0.0 0.0 0.0 0.0
000020 80 80 80 80 80 80 80 80 80 80 80 80 80 80 80 80
       0.0 0.0 0.0 0.0 0.0 0.0 0.0 0.0 0.0 0.0 0.0 0.0 0.0 0.0 0.0 0.0
000030 80 80 80 80 80 80 80 80 80 80 80 80 80 80 80 80
       0.0 0.0 0.0 0.0 0.0 0.0 0.0 0.0 0.0 0.0 0.0 0.0 0.0 0.0 0.0 0.0
000040 80 80 80 80 80 80 80 80 80 80 80 80 80 80 80 80
       0.0 0.0 0.0 0.0 0.0 0.0 0.0 0.0 0.0 0.0 0.0 0.0 0.0 0.0 0.0 0.0
000050 80 80 80 80 80 80 80 80 80 80 80 80 80 80 80 80
       0.0 0.0 0.0 0.0 0.0 0.0 0.0 0.0 0.0 0.0 0.0 0.0 0.0 0.0 0.0 0.0
000060 80 80 80 80 80 80 80 80 80 80 80 80 80 80 80 80
       0.0 0.0 0.0 0.0 0.0 0.0 0.0 0.0 0.0 0.0 0.0 0.0 0.0 0.0 0.0 0.0
000070 80 80 80 80 80 80 80 80 80 80 80 80 80 80 80 80
       0.0 0.0 0.0 0.0 0.0 0.0 0.0 0.0 0.0 0.0 0.0 0.0 0.0 0.0 0.0 0.0
000080 80 80 80 80 80 80 80 80 80 80 80 80 80 80 80 80
       0.0 0.0 0.0 0.0 0.0 0.0 0.0 0.0 0.0 0.0 0.0 0.0 0.0 0.0 0.0 0.0
000090 80 80 80 80 80 80 80 80 80 80 80 80 80 80 80 80
       0.0 0.0 0.0 0.0 0.0 0.0 0.0 0.0 0.0 0.0 0.0 0.0 0.0 0.0 0.0 0.0
0000a0 80 80 80 80 80 80 80 80 80 80 80 80 80 80 80 80
       0.0 0.0 0.0 0.0 0.0 0.0 0.0 0.0 0.0 0.0 0.0 0.0 0.0 0.0 0.0 0.0
0000b0 80 80 80 80 80 80 80 80 80 80 80 80 80 80 80 80
       0.0 0.0 0.0 0.0 0.0 0.0 0.0 0.0 0.0 0.0 0.0 0.0 0.0 0.0 0.0 0.0
0000c0 80 80 80 80 80 80 80 80 80 80 80 80 80 80 80 80
       0.0 0.0 0.0 0.0 0.0 0.0 0.0 0.0 0.0 0.0 0.0 0.0 0.0 0.0 0.0 0.0
0000d0 80 80 80 80 80 80 80 80 80 80 80 80 80 80 80 80
       0.0 0.0 0.0 0.0 0.0 0.0 0.0 0.0 0.0 0.0 0.0 0.0 0.0 0.0 0.0 0.0
0000e0 80 80 80 80 80 80 80 80 80 80 80 80 80 80 80 80
       0.0 0.0 0.0 0.0 0.0 0.0 0.0 0.0 0.0 0.0 0.0 0.0 0.0 0.0 0.0 0.0
0000f0 80 80 80 80 80 80 80 80 80 80 80 80 80 80 80 80
       0.0 0.0 0.0 0.0 0.0 0.0 0.0 0.0 0.0 0.0 0.0 0.0 0.0 0.0 0.0 0.0

tfl.pseudo_qconst29 i1 [1, 22, 1, 64] scale=0.051802043 zero_point=-128
000000 80 80 80 80 80 80 80 80 80 80 80 80 80 80 80 80
       0.0 0.0 0.0 0.0 0.0 0.0 0.0 0.0 0.0 0.0 0.0 0.0 0.0 0.0 0.0 0.0
000010 80 80 80 80 80 80 80 80 80 80 80 80 80 80 80 80
       0.0 0.0 0.0 0.0 0.0 0.0 0.0 0.0 0.0 0.0 0.0 0.0 0.0 0.0 0.0 0.0
000020 80 80 80 80 80 80 80 80 80 80 80 80 80 80 80 80
       0.0 0.0 0.0 0.0 0.0 0.0 0.0 0.0 0.0 0.0 0.0 0.0 0.0 0.0 0.0 0.0
000030 80 80 80 80 80 80 80 80 80 80 80 80 80 80 80 80
       0.0 0.0 0.0 0.0 0.0 0.0 0.0 0.0 0.0 0.0 0.0 0.0 0.0 0.0 0.0 0.0
000040 80 80 80 80 80 80 80 80 80 80 80 80 80 80 80 80
       0.0 0.0 0.0 0.0 0.0 0.0 0.0 0.0 0.0 0.0 0.0 0.0 0.0 0.0 0.0 0.0
000050 80 80 80 80 80 80 80 80 80 80 80 80 80 80 80 80
       0.0 0.0 0.0 0.0 0.0 0.0 0.0 0.0 0.0 0.0 0.0 0.0 0.0 0.0 0.0 0.0
000060 80 80 80 80 80 80 80 80 80 80 80 80 80 80 80 80
       0.0 0.0 0.0 0.0 0.0 0.0 0.0 0.0 0.0 0.0 0.0 0.0 0.0 0.0 0.0 0.0
000070 80 80 80 80 80 80 80 80 80 80 80 80 80 80 80 80
       0.0 0.0 0.0 0.0 0.0 0.0 0.0 0.0 0.0 0.0 0.0 0.0 0.0 0.0 0.0 0.0
000080 80 80 80 80 80 80 80 80 80 80 80 80 80 80 80 80
       0.0 0.0 0.0 0.0 0.0 0.0 0.0 0.0 0.0 0.0 0.0 0.0 0.0 0.0 0.0 0.0
000090 80 80 80 80 80 80 80 80 80 80 80 80 80 80 80 80
       0.0 0.0 0.0 0.0 0.0 0.0 0.0 0.0 0.0 0.0 0.0 0.0 0.0 0.0 0.0 0.0
0000a0 80 80 80 80 80 80 80 80 80 80 80 80 80 80 80 80
       0.0 0.0 0.0 0.0 0.0 0.0 0.0 0.0 0.0 0.0 0.0 0.0 0.0 0.0 0.0 0.0
0000b0 80 80 80 80 80 80 80 80 80 80 80 80 80 80 80 80
       0.0 0.0 0.0 0.0 0.0 0.0 0.0 0.0 0.0 0.0 0.0 0.0 0.0 0.0 0.0 0.0
0000c0 80 80 80 80 80 80 80 80 80 80 80 80 80 80 80 80
       0.0 0.0 0.0 0.0 0.0 0.0 0.0 0.0 0.0 0.0 0.0 0.0 0.0 0.0 0.0 0.0
0000d0 80 80 80 80 80 80 80 80 80 80 80 80 80 80 80 80
       0.0 0.0 0.0 0.0 0.0 0.0 0.0 0.0 0.0 0.0 0.0 0.0 0.0 0.0 0.0 0.0
0000e0 80 80 80 80 80 80 80 80 80 80 80 80 80 80 80 80
       0.0 0.0 0.0 0.0 0.0 0.0 0.0 0.0 0.0 0.0 0.0 0.0 0.0 0.0 0.0 0.0
0000f0 80 80 80 80 80 80 80 80 80 80 80 80 80 80 80 80
       0.0 0.0 0.0 0.0 0.0 0.0 0.0 0.0 0.0 0.0 0.0 0.0 0.0 0.0 0.0 0.0
